model/model_twistspeed5.ckpt (torch, 237197 bytes, 12 tensors)

layers.0.weight f4 [128, 112]
0.010974529 -0.043459304 -0.0030933085 -0.004257682 -0.0056565534 0.029405069 0.0030731384 0.09492759
-0.015723752 -0.039645806 -0.0024644597 -0.010707293 0.05316606 -0.0929559 -0.025031501 -0.02788123
0.021686535 -0.017662799 -0.029454118 0.0020385617 0.060933497 0.05471033 0.08547622 0.009016439
0.08609961 -0.028368935 0.04156625 0.004443688 0.01596013 0.009024603 0.005029574 0.017299207
0.07301068 0.035681758 0.008576478 -0.027398605 -0.018525599 0.11162492 -0.049272068 -0.02683329
0.00804512 0.0129117295 0.17208673 0.064294055 -0.087165914 0.09547592 -0.092219144 0.06547974
-0.037481055 -0.05208722 0.0060603986 -0.041408554 0.016397461 0.0007085369 -0.055102386 -0.022256719
0.0014766778 -0.04359693 -0.025488708 0.043212395 -0.046496112 -0.020357812 0.05017969 -0.18752703
-0.10071147 -0.11430621 0.3444324 0.2712609 -0.11741525 0.13949813 0.0338031 -0.20144401
0.033635847 -0.07332037 0.2029937 -0.00012740714 0.016704557 -0.022937827 0.004867875 0.023627311
0.019632777 -0.013317437 -0.09201965 -0.032772373 -0.05002319 0.041829146 -0.014738711 -0.012976104
0.3281022 -0.23943827 0.12249151 -0.37418735 -0.4244377 0.09431542 -0.061077077 -0.1120471
0.25957963 -0.22102356 0.062453885 -0.35916948 0.004156163 0.051192693 0.0016480077 0.005528466
-0.030656388 0.007464238 0.0013037807 -0.026563097 0.027825546 0.021037431 -0.022814978 0.03642581
-0.0016992104 0.020483235 0.02151406 0.002148424 0.065733075 0.06966582 -0.017552884 0.006605497
-0.017707521 0.011551751 0.12455351 0.035458755 -0.026575252 0.17219618 -0.05031105 0.037349064
0.093306206 -0.10558012 0.030849997 -0.13698395 0.017801477 -0.104712114 -0.044339143 -0.006238689
-0.041276306 -0.0041806772 0.022057252 -0.00011279769 -0.0363835 0.04447654 -0.025746226 0.010028904
0.049829222 0.06269402 0.005799766 0.063404195 -0.051839627 -0.06401196 0.13196787 0.001920027
0.0775596 0.13624139 -0.07699984 -0.08754358 -0.074217856 -0.026168339 -0.096247084 -0.03620594
-0.09348971 -0.18716915 -0.03539171 -0.0062505845 0.028064314 -0.0029775382 0.0012339726 -0.004193325
0.004100721 -0.009700935 0.052235913 0.044114716 0.08535972 0.026817903 0.01463343 0.121512026
0.0347982 0.0076752314 0.12671903 -0.03526748 -0.03501727 -0.172071 -0.0790495 -0.09830582
-0.0135542 -0.08577755 -0.09747949 0.007891192 0.058153447 0.031631395 -0.0045000454 0.06702209
-0.011870167 -0.0501977 -0.04750272 0.033222914 -0.017607326 0.074678324 0.08003788 -0.053357273
0.16907997 -0.017775549 -0.020851817 0.17130351 -0.16808628 0.071430266 -0.242922 -0.17613843
-0.24288341 -0.05518092 -0.10471409 -0.11251212 0.028014464 -0.0021762433 0.016871277 0.0633907
0.034624416 0.0044584665 0.011335037 0.015896175 0.0029005706 -0.08524092 -0.04502612 -0.0061672116
0.022264874 0.012706961 -0.014757835 0.029263452 0.003088083 0.025820643 0.0022899024 0.0026082043
0.030770257 -0.018402966 -0.014724669 0.01982901 0.009400488 -0.05366083 -0.0691769 -0.03187499
0.081570916 0.0382587 -0.05323936 0.05046206 0.0051889475 0.0009391912 -0.02142081 0.04426481
-0.07088528 -0.0024220962 0.018411987 -0.021884387 -0.010362757 -0.015369615 0.006011847 -0.05045888
00000000: 83ce 333c 6202 32bd 1bb9 4abb 0684 8bbb
00000010: 9c5a b9bb e6e2 f03c b566 493b 6569 c23d
00000020: 19cf 80bc a463 22bd c682 21bb a46d 2fbc
00000030: a8c4 593d aa5f bebd dd0e cdbc 2d67 e4bc
00000040: f6a7 b13c 93b1 90bc c349 f1bc 6499 053b
00000050: 6795 793d f017 603d 280e af3d b0b9 133c
00000060: fe54 b03d f865 e8bc 5f41 2a3d 5b9c 913b
00000070: d2be 823c eedb 133c 20cf a43b 11b7 8d3c
00000080: a086 953d 0927 123d 5b84 0c3c 0a73 e0bc
00000090: ffc2 97bc 9b9b e43d 82d1 49bd 7dd1 dbbc
000000a0: aecf 033c b88b 533c 8137 303e 9aac 833d
000000b0: 0b84 b2bd e188 c33d 64dd bcbd 3e1a 863d
000000c0: bc85 19bd 6959 55bd 4f96 c63b 049c 29bd
000000d0: f853 863c 1bbd 393a 0ab3 61bd b953 b6bc
000000e0: 168d c13a b292 32bd b2cd d0bc 7bff 303d
000000f0: b572 3ebd 6dc5 a6bc 3889 4d3d 1607 40be
00000100: d141 cebd 6019 eabd 7259 b03e b5e2 8a3e
00000110: 6877 f0bd 99d8 0e3e 1f75 0a3d 5747 4ebe
00000120: bec5 093d fd28 96bd 95dd 4f3e 9898 05b9
00000130: ffd7 883c 1ce8 bbbc b282 9f3b 108e c13c
00000140: ebd4 a03c 6131 5abc cc74 bcbd 533c 06bd
00000150: 1ee5 4cbd 0a55 2b3d a27a 71bc ba99 54bc
00000160: 03fd a73e 4e2f 75be d4dc fa3d 7c95 bfbe
00000170: e64f d9be 7128 c13d f52b 7abd f378 e5bd
00000180: 9fe7 843e 0054 62be a5cf 7f3d 10e5 b7be
00000190: 6c30 883b 6eaf 513d f601 d83a 2228 b53b
000001a0: 1b23 fbbc 9196 f43b 9fe3 aa3a da9a d9bc
000001b0: 66f2 e33c b156 ac3c 7ae6 babc 3b33 153d
000001c0: 0ab8 deba 75cc a73c 413e b03c 93cc 0c3b
000001d0: 109f 863d f4ac 8e3d 11cb 8fbc ed72 d83b
000001e0: 5d0f 91bc 8e43 3d3c e915 ff3d 333d 113d
000001f0: 58b4 d9bc 3254 303e f612 4ebd 55fb 183d
00000200: 5317 bf3d 643a d8bd 22b9 fc3c 8545 0cbe
00000210: 67d4 913c 4e73 d6bd f69c 35bd eb6d ccbb
00000220: 5811 29bd 10fe 88bb 69b1 b43c cc8d ecb8
00000230: dd06 15bd 082d 363d c0e9 d2bc 4650 243c
00000240: ba19 4c3d b965 803d f70b be3b 0fda 813d
00000250: ca55 54bd b418 83bd 9622 073e 6aa9 fb3a
00000260: 91d7 9e3d dd82 0b3e 18b2 9dbd 0c4a b3bd
00000270: 88ff 97bd fc5e d6bc 311d c5bd ae4c 14bd
00000280: 8877 bfbd 45a9 3fbe e6f6 10bd b4d1 ccbb
00000290: 22e7 e53c cd22 43bb 40bd a13a 2968 89bb
000002a0: 575f 863b acf0 1ebc 53f5 553d a2b1 343d
000002b0: 14d1 ae3d 38b1 db3c 0ec1 6f3c 4cdb f83d
000002c0: 8f88 0e3d 8280 fb3b a2c2 013e a274 10bd
000002d0: 456e 0fbd 6133 30be b4e4 a1bd 9054 c9bd
000002e0: 6f12 5ebc 24ac afbd 54a3 c7bd 0f4a 013c
000002f0: 4f32 6e3d ec8f 013d 1e75 93bb e142 893d
00000300: 177b 42bc 1a9c 4dbd 3692 42bd c014 083d
00000310: 3d3d 90bc f3f0 983d e6ea a33d 288d 5abd
00000320: 4d23 2d3e 079e 91bc 6ed1 aabc 306a 2f3e
00000330: cf1e 2cbe 084a 923d 8bc0 78be a25d 34be
00000340: 6eb6 78be 6305 62bd 5774 d6bd c16c e6bd
00000350: 977e e53c 4e9f 0ebb a235 8a3c fcd2 813d
00000360: 55d2 0d3d 5418 923b 97b6 393c b238 823c
00000370: 8017 3e3b cb92 aebd 4f6d 38bd 5216 cabb
00000380: d364 b63c db30 503c d9ca 71bc e8b9 ef3c
00000390: 6f61 4a3b d085 d33c 3012 163b 68ee 2a3b
000003a0: e811 fc3c d1c1 96bc bd3f 71bc 7370 a23c
000003b0: 8104 1a3c 75cb 5bbd 9eac 8dbd 598f 02bd
000003c0: a70e a73d 28b5 1c3d 8411 5abd 4eb1 4e3d
000003d0: 0c08 aa3b 0e34 763a b27a afbc 044f 353d
000003e0: 4d2c 91bd 08bc 1ebb bcd4 963c e346 b3bc
000003f0: 8ec8 29bc d6d0 7bbc 07ff c43b f8ad 4ebd

layers.0.bias f4 [128]
0.18268809 -0.10302931 -0.0031856983 0.042940263 0.23932771 0.032359064 0.014773753 0.015554875
0.15335935 -0.04172913 0.14100306 0.07512233 0.24419427 0.15487035 0.25535527 0.12728709
0.13474897 0.2428985 0.27819565 0.043079995 -0.0037623558 0.22019497 0.07900227 0.10858609
0.0002921535 0.19689159 -0.01519089 -0.015710426 0.24142855 0.23205397 0.020629525 0.10706575
0.20057547 0.20065725 -0.028623179 -0.008038863 0.1665474 0.18528304 0.16940181 0.18556422
0.24441776 0.07254118 0.18465419 0.009592715 0.09308267 0.13730334 0.011618762 -0.030878304
0.050398216 -0.034889586 0.19771878 0.17523144 0.17783138 0.02113212 -0.030310543 -0.0071514095
0.19940217 0.21913177 0.17652659 -0.023028832 -0.064143986 0.003951625 0.19476742 0.100070745
0.24046703 -0.0035053333 0.14475928 0.14623486 0.17532219 0.0018987566 0.13542975 0.10470692
0.17846677 0.1575914 -0.021056028 0.23701818 0.16794097 0.17119417 0.07674226 -0.23428978
0.035245504 0.20771477 0.1733106 0.18279262 0.13194501 0.26902074 -0.049858876 4.232165e-05
0.213147 0.22725275 0.010500393 0.14796062 0.028842038 0.14253041 0.10703006 -0.05882327
0.18251464 0.036198977 -0.0020550217 0.0031791488 0.020808432 -0.011149125 0.15060931 0.11042987
-0.031546157 0.064739585 -0.00052988576 0.11099498 0.03791067 0.110781886 0.21588445 -0.033769555
0.18423425 0.05369787 0.027581435 0.0781418 0.21591066 -0.026178438 0.19067661 0.04640345
0.20353635 0.028907537 0.08616754 0.034277745 0.08553158 -0.028251762 -0.009832563 0.15744494
00000000: 9612 3b3e 0801 d3bd 26c7 50bb 21e2 2f3d
00000010: 5312 753e f08a 043d 9c0d 723c e0d9 7e3c
00000020: 3c0a 1d3e 2aec 2abd 1b63 103e bcd9 993d
00000030: 100e 7a3e 5596 1e3e edbd 823e 8c57 023e
00000040: a2fb 093e 62ba 783e a96f 8e3e a674 303d
00000050: db91 76bb ca7a 613e f1cb a13d 6262 de3d
00000060: 2e2c 9939 f39d 493e 36e3 78bc 27b3 80bc
00000070: 0c39 773e 8e9f 6d3e 40ff a83c 4a45 db3d
00000080: a863 4d3e 1879 4d3e 287b eabc 6fb5 03bc
00000090: 678b 2a3e d6ba 3d3e ab77 2d3e 8c04 3e3e
000000a0: a648 7a3e 7890 943d fd15 3d3e c32a 1d3c
000000b0: 20a2 be3d 3f99 0c3e 9f5c 3e3c 7ff4 fcbc
000000c0: 5c6e 4e3d 62e8 0ebd cb76 4a3e df6f 333e
000000d0: 6e19 363e 451d ad3c d14d f8bc 5f56 eabb
000000e0: 1530 4c3e 1464 603e 63c3 343e f6a6 bcbc
000000f0: ec5d 83bd a27c 813b 1c71 473e e4f1 cc3d
00000100: fd3c 763e bcb9 65bb c73b 143e 97be 153e
00000110: a987 333e b3df f83a 19ae 0a3e 9570 d63d
00000120: febf 363e a45f 213e b17d acbc e5b4 723e
00000130: b8f8 2b3e 864d 2f3e 0c2b 9d3d a9e9 6fbe
00000140: 975d 103d 2eb3 543e 5578 313e fd2d 3b3e
00000150: 981c 073e 16bd 893e d238 4cbd 8782 3138
00000160: 3543 5a3e f2b4 683e d709 2c3c fd82 173e
00000170: 2346 ec3c 7ef3 113e 9332 db3d abf0 70bd
00000180: 1ee5 3a3e 6145 143d 8bad 06bb 4459 503b
00000190: 7276 aa3c d2aa 36bc 5439 1a3e 0e29 e23d
000001a0: 8b36 01bd 3096 843d 08e8 0aba 5651 e33d
000001b0: 3848 1b3d 9de1 e23d d010 5d3e f251 0abd
000001c0: e7a7 3c3e 4cf2 5b3d 76f2 e13c cf08 a03d
000001d0: af17 5d3e 2a74 d6bc bb40 433e 8b11 3e3d
000001e0: d56b 503e 80cf ec3c 9b78 b03d d266 0c3d
000001f0: 2e2b af3d 3d70 e7bc c218 21bc 3f39 213e

layers.2.weight f4 [128, 128]
0.004159876 0.029656041 -0.017446075 0.07414052 0.07014646 0.053729367 0.023307588 0.024152486
0.13079475 0.092584364 -0.13385178 -0.046593506 0.035849176 -0.08854762 -0.069219425 -0.06833717
-0.02358225 0.03763905 0.08977858 0.06807569 0.05340145 -0.03398159 0.13718235 -0.007862692
0.11052938 0.06682664 0.053060193 -0.028328346 0.029339697 0.0217769 0.0012908736 0.0403796
0.07672362 -0.049296834 0.05402146 0.062044904 0.15935744 0.028956441 -0.031498637 0.04443761
-0.0525332 0.06780684 -0.11734899 -0.0022898319 0.040616315 0.12086344 -0.04080154 0.052599218
0.089686155 0.09106254 -0.15816529 0.0063285786 0.012498729 0.032337338 -0.04652354 0.111374855
0.080114305 0.14005901 -0.013504898 -0.07972518 0.07098223 0.010069476 0.026406296 -0.068185546
0.047846828 0.08093384 0.021902055 0.001622624 0.11444553 0.0336601 0.083007984 0.017777512
0.048401866 0.044539735 -0.07171314 -0.04358603 -0.12096139 -0.04180627 0.025564851 0.18682182
0.18783796 0.06762657 0.004002345 0.07191266 -0.03096619 -0.03574945 0.10874394 -0.06784573
0.022159653 0.07085081 -0.08377182 -0.007498981 0.004465859 0.057721034 0.025273582 0.2220314
0.100722805 0.03713267 0.036698587 0.029136185 0.11925055 0.07344761 -0.07248728 -0.13776934
0.04222615 -0.11691074 0.043270588 -0.0018217782 -0.039783932 -0.022644557 -0.022139871 0.058580402
-0.047604706 0.109878846 0.07737175 -0.048129734 -0.12788622 -0.12882572 0.17614082 -0.01966322
-0.032143142 0.07219788 0.1228159 -0.011180703 0.1344853 0.026570879 0.113991536 0.051464625
0.014873019 0.08757652 0.07611856 0.004272336 -0.08266734 -0.013779059 -0.03054038 0.04234461
-0.037523992 0.013801606 0.002112027 0.052736655 0.12441718 -0.12460606 -0.0043378775 0.012658182
0.11967265 0.024780836 -0.059425686 0.01132971 0.061953988 -0.08593115 -0.04161722 -0.06664721
0.07089557 0.08913091 0.063185014 -0.050144237 0.12800534 -0.0478808 -0.022373691 -0.05801344
0.05345201 0.06919953 0.0039170715 -0.093892224 0.022646349 0.06177199 0.15060578 0.020832356
0.015914606 0.11159893 0.019905593 0.06791433 -0.014938596 0.082064904 0.13872795 0.011648704
-0.011557748 0.022564624 0.070457324 0.093049355 0.03601524 0.09797057 -0.017260566 0.013623525
0.056929275 0.10583471 -0.018061223 0.06751941 0.03631757 -0.0067310217 0.069999814 -0.057109907
0.07340285 -0.034088608 0.14829879 -0.08913289 -0.07150043 0.026402628 -0.04862011 0.05942107
-0.0032294467 0.03013421 -0.071169704 -0.046198916 0.044305444 0.03361887 0.018611869 -0.0007980427
0.0062772897 0.11950262 0.09720356 0.0062389164 0.005189997 -0.017436333 0.030339152 0.022566888
-0.07671107 0.048407774 0.018910896 -0.059090633 0.11204708 -0.04048277 0.14149368 0.032412387
-0.065186545 -0.030971905 0.093905956 -0.01660184 0.1471599 0.051767025 0.0659859 0.014644882
0.049683113 0.08805257 0.0035360353 0.08697644 0.018140666 0.00071758917 0.09784039 0.09118696
0.08784113 -0.041109744 0.20127706 0.10628159 -0.06716169 -0.17296308 -0.04856945 -0.027128361
0.055593412 0.04368097 -0.0065604565 0.058129046 0.10067196 -0.08087951 0.01772767 -0.07585324
00000000: 924f 883b 3af1 f23c 12eb 8ebc fcd6 973d
00000010: f2a8 8f3d 5313 5c3d 8eef be3c 6fdb c53c
00000020: 0fef 053e df9c bd3d 7110 09be d5d8 3ebd
00000030: 96d6 123d 7458 b5bd eac2 8dbd 5cf4 8bbd
00000040: 902f c1bc 682b 1a3d d5dd b73d 446b 8b3d
00000050: 7bbb 5a3d 4830 0bbd 8879 0c3e 85d2 00bc
00000060: 3a5d e23d 68dc 883d a555 593d d910 e8bc
00000070: ce59 f03c 7865 b23c 8832 a93a 1465 253d
00000080: 4621 9d3d 7aeb 49bd 9b45 5d3d cc22 7e3d
00000090: 992e 233e 0f36 ed3c b704 01bd 3604 363d
000000a0: 0d2d 57bd 50de 8a3d ab54 f0bd 0111 16bb
000000b0: 4b5d 263d 4087 f73d 841f 27bd 4772 573d
000000c0: 60ad b73d ff7e ba3d 15f6 21be f75f cf3b
000000d0: 78c7 4c3c 2874 043d 788f 3ebd 8018 e43d
000000e0: f812 a43d a16b 0f3e a643 5dbc f546 a3bd
000000f0: 225f 913d 72fa 243c 0452 d83c dda4 8bbd
00000100: 09fb 433d a4c0 a53d f06b b33c 3aae d43a
00000110: 6b62 ea3d 2cdf 093d 1700 aa3d 25a2 913c
00000120: 0941 463d 4c6f 363d 57de 92bd 4487 32bd
00000130: 9bba f7bd 0d3d 2bbd 616d d13c 384e 3f3e
00000140: 9858 403e cd7f 8a3d 1a26 833b f246 933d
00000150: cfac fdbc 046e 12bd 25b5 de3d b4f2 8abd
00000160: 2988 b53c 3b1a 913d 8f90 abbd 03ba f5bb
00000170: 5756 923b e46c 6c3d 8b0a cf3c 335c 633e
00000180: c247 ce3d 6d18 183d 4251 163d 02af ee3c
00000190: a239 f43d b36b 963d 3674 94bd 6813 0dbe
000001a0: 54f5 2c3d e66e efbd 803c 313d bcc8 eeba
000001b0: 7af4 22bd 1481 b9bc ad5e b5bc 01f2 6f3d
000001c0: 27fd 42bd 2908 e13d 1475 9e3d af23 45bd
000001d0: 9bf4 02be e4ea 03be 425e 343e c314 a1bc
000001e0: 87a8 03bd 7bdc 933d e786 fb3d 442f 37bc
000001f0: 84b6 093e 2cab d93c 6574 e93d 92cc 523d
00000200: f7ad 733c 525b b33d 0ce4 9b3d f4fe 8b3b
00000210: 7f4d a9bd 90c1 61bc d22f fabc 8b71 2d3d
00000220: c2b2 19bd 2220 623c ef69 0a3b 6402 583d
00000230: 6fce fe3d 7631 ffbd c124 8ebb 4364 4f3c
00000240: ef16 f53d 2e01 cb3c 5968 73bd 3fa0 393c
00000250: 77c3 7d3d acfc afbd d176 2abd 557e 88bd
00000260: b231 913d 448a b63d 2567 813d 0b64 4dbd
00000270: d513 033e a81e 44bd 0849 b7bc 809f 6dbd
00000280: 7ff0 5a3d 7cb8 8d3d c75a 803b 914a c0bd
00000290: d684 b93c a004 7d3d 6738 1a3e 9ea8 aa3c
000002a0: 595f 823c fb8d e43d 0e11 a33c ab16 8b3d
000002b0: 03c1 74bc a511 a83d b30e 0e3e 35da 3e3c
000002c0: b55c 3dbc 72d9 b83c ee4b 903d a990 be3d
000002d0: b784 133d cba4 c83d 0866 8dbc 3535 5f3c
000002e0: ac2e 693d debf d83d 21f5 93bc 9e47 8a3d
000002f0: bbc1 143d e78f dcbb 105c 8f3d 14ec 69bd
00000300: 3c54 963d 7fa0 0bbd a3db 173e 4e8b b6bd
00000310: d16e 92bd 534a d83c e125 47bd 8263 733d
00000320: 20a5 53bb 05dc f63c 6cc1 91bd 133b 3dbd
00000330: a079 353d f1b3 093d eb77 983c bd33 51ba
00000340: b9b1 cd3b cabd f43d a912 c73d d36f cc3b
00000350: da10 aa3b a4d6 8ebc d089 f83c 32de b83c
00000360: b21a 9dbd 3b47 463d 06eb 9a3c 0509 72bd
00000370: f178 e53d 43d1 25bd b8e3 103e dac2 043d
00000380: 8680 85bd cbb8 fdbc c451 c03d 9500 88bc
00000390: 16b1 163e a909 543d 9e23 873d 16f1 6f3c
000003a0: 8580 4b3d e854 b43d d4bc 673b b420 b23d
000003b0: bc9b 943c 981c 3c3a 8b60 c83d 3bc0 ba3d
000003c0: 0de6 b33d b162 28bd 931b 4e3e 2aaa d93d
000003d0: 118c 89bd 3c1d 31be c2f0 46bd 4c3c debc
000003e0: ebb5 633d d1ea 323d 19f9 d6bb b918 6e3d
000003f0: 1a2d ce3d 28a4 a5bd 9e39 913c f258 9bbd

layers.2.bias f4 [128]
0.113497086 -0.020744754 0.036142495 -0.020972671 0.014396042 0.010063579 0.1335416 0.081981525
-0.01387069 -0.03285124 -0.015887706 -0.005172031 0.06763073 0.11416422 0.112267226 0.13708569
-0.0053223004 -0.05109329 0.03345682 0.07511936 -0.0070152804 0.08323582 -0.008202803 -0.014668756
0.09633266 -0.012366576 -0.092865214 0.054468766 -0.03701642 -0.047458574 0.0779959 -0.013979351
-0.056973316 0.08764881 0.07469221 0.07617758 -0.012496078 0.08743431 -0.006694803 -0.026126187
0.07819388 0.05560192 -0.059069473 -0.011320641 -0.0137157645 -0.030003758 0.094401956 -0.05265981
0.09892966 -0.024323437 0.078082755 0.090347745 -0.05452811 -0.020992065 -0.010303588 0.09983962
0.10066184 0.02372909 -0.024443042 0.04482549 0.059865117 0.17143008 0.024730146 -0.038811374
-0.023904625 0.11230556 0.062388342 0.0010275093 -0.009237527 0.15761018 -0.051862102 -0.029347701
0.026146611 0.0051674275 0.043912094 0.03704849 0.038259923 0.10902638 -0.023287883 0.024151906
0.02569594 -0.012699367 0.052611332 -0.07873329 -0.016860897 -0.0082528815 0.024431136 0.0077291727
0.092055835 0.003451457 0.07807253 0.010284458 -0.0030301656 0.023193285 0.03128313 0.057497628
-0.0071944566 -0.04050238 0.01753832 -0.038083002 -0.023994114 0.084624425 0.01543518 -0.05110557
-0.02989961 0.08818016 -0.067022435 0.095670074 -0.008395746 0.004977371 0.054926693 0.017984418
-0.06081618 -0.045146562 -0.048354235 0.04188868 0.03825559 0.11700237 2.3298361 0.083553515
0.050931472 0.10217041 0.09244634 0.06846715 0.09303329 -0.09202947 -0.024460375 0.042775124
00000000: 2971 e83d e7f0 a9bc 270a 143d e1ce abbc
00000010: 60dd 6b3c b6e1 243c 21bf 083e eee5 a73d
00000020: e441 63bc 068f 06bd ef26 82bc 247a a9bb
00000030: fb81 8a3d eece e93d 5cec e53d 3160 0c3e
00000040: b166 aebb 3347 51bd 050a 093d 2ed8 993d
00000050: 70e0 e5bb 8b77 aa3d 0d65 06bc 3955 70bc
00000060: 0f4a c53d 2e9d 4abc 1e30 bebd a41a 5f3d
00000070: 889e 17bd ec63 42bd 50bc 9f3d a609 65bc
00000080: da5c 69bd 3881 b33d 3bf8 983d fe02 9c3d
00000090: 5abc 4cbc c210 b33d 1460 dbbb 9606 d6bc
000000a0: 1d24 a03d d7be 633d d5f2 71bd 367a 39bc
000000b0: 16b8 60bc 71ca f5bc d055 c13d d0b1 57bd
000000c0: a29b ca3d f241 c7bc dae9 9f3d 3d08 b93d
000000d0: de58 5fbd 8df7 abbc 61d0 28bc b778 cc3d
000000e0: cb27 ce3d 8263 c23c c63c c8bc ef9a 373d
000000f0: 2035 753d 5e8b 2f3e e096 ca3c adf8 1ebd
00000100: a2d3 c3bc 7500 e63d eb8a 7f3d 7ead 863a
00000110: ff58 17bc 9064 213e 5b6d 54bd 976a f0bc
00000120: 6b31 d63c 8653 a93b 2bdd 333d 28c0 173d
00000130: 70b6 1c3d 3949 df3d 3bc6 bebc 38da c53c
00000140: 4b80 d23c 0111 50bc fb7e 573d eb3e a1bd
00000150: dd1f 8abc 1837 07bc ce23 c83c 0045 fd3b
00000160: c587 bc3d d731 623b 7ee4 9f3d 2580 283c
00000170: be95 46bb d8ff bd3c bd22 003d a282 6b3d
00000180: 7abf ebbb d3e5 25bd 86ac 8f3c ecfc 1bbd
00000190: 4e8f c4bc 924f ad3d d6e3 7c3c 1354 51bd
000001a0: 07f0 f4bc cd97 b43d 0f43 89bd acee c33d
000001b0: 508e 09bc 3719 a33b d0fa 603d 0f54 933c
000001c0: 631a 79bd 9aeb 38bd 170f 46bd 7793 2b3d
000001d0: e5b1 1c3d f09e ef3d 091c 1540 1b1e ab3d
000001e0: 859d 503d b83e d13d 8254 bd3d 8138 8c3d
000001f0: 3d88 be3d f279 bcbd 2061 c8bc f834 2f3d

layers.4.weight f4 [128, 128]
0.10688991 -0.022154536 0.015302654 0.018397817 0.08596457 0.0036598223 -0.10723257 0.010450066
0.07683273 -0.049205456 0.06387378 -0.04231969 0.10314225 -0.009090587 -0.07023601 -0.00710725
-0.0013143764 0.07795767 -0.013954019 -0.029215671 -0.0027172714 0.064782426 0.0075534172 -0.10049567
0.054806963 -0.06833692 -0.081870094 0.14897563 0.10721789 -0.12671956 0.04155936 0.022633035
0.029666902 0.050157197 -0.05645641 -0.0423134 -0.083839364 0.11402522 0.05825996 0.112006746
0.064527996 0.08411659 -0.04012605 -0.08288835 0.0533493 0.10153981 0.039408237 -0.100896806
-0.030550795 -0.13340099 0.06833226 -0.047346726 0.07295994 -0.06123833 -0.054496184 0.09352333
0.008418732 -0.12968113 0.072070636 0.07123961 0.048296947 0.0075383894 0.02541142 0.1050437
-0.037672997 0.055490147 0.06666088 -0.016701192 0.0140387425 -0.0022337844 -0.028465357 0.11151005
0.10957511 0.0074412725 0.046706617 0.030532494 -0.019616295 0.09410071 0.0022621206 0.08684894
-0.009512765 0.10160479 0.020916298 0.04114641 0.039921664 0.022382302 0.06059395 0.088327095
0.0224874 -0.084073775 0.059195716 0.04698516 0.077030085 -0.01950502 0.06444216 -0.0981065
-0.013052622 0.06113202 -0.13693848 -0.0730283 0.09296998 0.003393841 -0.13674413 0.073936716
0.054877 0.082256705 0.06064702 -0.052659553 -0.12545003 0.013693703 -0.059059646 -0.0140694985
-0.07905229 0.005438178 -0.005985878 0.012014565 -0.08046165 0.038450632 0.07745975 -0.0120656835
-0.024118 -0.012433735 -0.048660137 0.052422743 0.06747842 -0.10766449 0.005788092 0.12749696
0.046320435 -0.029632302 0.02736719 0.10372219 -0.016317638 0.08394362 0.063316114 -0.092937276
0.10505252 0.054423247 -0.09335581 0.09734 0.06899694 0.08331298 -0.065523066 -0.05514048
-0.014669989 -0.0834034 -0.006026384 -0.10371522 -0.065447815 0.005878602 -0.03634519 0.12115246
-0.04116083 0.068320215 -0.103455074 0.064628325 -0.08160727 -0.057128076 0.1114134 0.014272817
-0.11846426 -0.029987225 -0.009907708 0.015579224 -0.13369322 0.013854806 -0.0618118 0.08613441
0.026241992 0.041799407 0.026274169 -0.02845908 0.028854117 0.21345058 0.018062081 -0.028747564
-0.06771563 0.024773583 0.11111054 -0.016290965 -0.038459036 -0.05763443 0.005984715 0.10224595
0.10811073 0.15248622 -0.020266097 0.013219812 -0.018414883 -0.11836864 0.07180731 0.0359592
0.08682055 0.070205525 0.0625819 0.07029651 -0.1051745 0.057488605 0.06216997 -0.09697878
-0.07971364 0.00901086 -0.012092708 0.044787787 0.016974367 0.036436994 0.07899573 0.017776608
-0.028561287 -0.06611692 0.19085151 -0.06829828 0.017932612 -0.0488067 -0.03390515 -0.06812722
-0.11492683 -0.08976167 -0.016963275 0.014943515 -0.025768591 0.07067154 -0.11129587 0.06490285
0.061583478 -0.03827488 0.013963951 0.066050604 0.09152413 0.060204692 0.051897295 0.076404184
0.09771984 0.1106499 0.0035399515 0.0875171 -0.094077714 -0.0492134 0.05378448 -0.041886084
0.061098013 0.10779657 -0.011327326 0.05731014 0.113893226 -0.055110484 0.041026548 0.013913469
0.05823178 0.07034067 0.02300926 0.07336909 0.047769465 0.17704965 -0.0053288448 0.009298808
00000000: 19e9 da3d 6e7d b5bc fcb7 7a3c 05b7 963c
00000010: 310e b03d a1d9 6f3b c09c dbbd c136 2b3c
00000020: 7a5a 9d3d a98b 49bd 42d0 823d 6957 2dbd
00000030: 3e3c d33d aff0 14bc e6d7 8fbd efe3 e8bb
00000040: 2747 acba 45a8 9f3d 669f 64bc b455 efbc
00000050: 4014 32bb a6ac 843d a882 f73b add0 cdbd
00000060: 447d 603d 3af4 8bbd 82ab a7bd 118d 183e
00000070: 0e95 db3d c6c2 01be 263a 2a3d ea68 b93c
00000080: 0108 f33c a271 4d3d d63e 67bd d150 2dbd
00000090: f9b3 abbd 0e86 e93d ffa1 6e3d cb63 e53d
000000a0: 4127 843d 5245 ac3d 375b 24bd 5ec1 a9bd
000000b0: cc84 5a3d 1bf4 cf3d 886a 213d fca2 cebd
000000c0: a945 fabc 459a 08be c9f1 8b3d a4ee 41bd
000000d0: 056c 953d 0bd5 7abd 6437 5fbd 2989 bf3d
000000e0: b9ee 093c 21cb 04be c599 933d 13e6 913d
000000f0: 05d3 453d 9804 f73b 9c2b d03c 2721 d73d
00000100: 004f 1abd a349 633d 8085 883d f0d0 88bc
00000110: c102 663c af64 12bb 2e30 e9bc 625f e43d
00000120: ea68 e03d ebd5 f33b 704f 3f3d 481f fa3c
00000130: 5ab2 a0bc dfb7 c03d 1640 143b dbdd b13d
00000140: 6edb 1bbc 2c16 d03d a858 ab3c 2389 283d
00000150: e684 233d 175b b73c 5d31 783d d6e4 b43d
00000160: 7f37 b83c df2e acbd 3577 723d 8373 403d
00000170: f3c1 9d3d fec8 9fbc 40fa 833d 10ec c8bd
00000180: aada 55bc 9265 7a3d 9a39 0cbe dd8f 95bd
00000190: 0b67 be3d 346b 5e3b a706 0cbe 226c 973d
000001a0: b5c6 603d 3476 a83d 0269 783d 8bb1 57bd
000001b0: f975 00be 8e5b 603c 87e8 71bd c183 66bc
000001c0: 2be6 a1bd be32 b23b 2f25 c4bb bdd8 443c
000001d0: 14c9 a4bd 697e 1d3d 38a3 9e3d 25af 45bc
000001e0: 1d93 c5bc ddb6 4bbc da4f 47bd 3bb9 563d
000001f0: 2032 8a3d 337f dcbd 09aa bd3b 908e 023e
00000200: 7fba 3d3d 71bf f2bc 2831 e03c 4d6c d43d
00000210: 91ac 85bc a2ea ab3d e1ab 813d e655 bebd
00000220: c725 d73d e9ea 5e3d 5531 bfbd 325a c73d
00000230: 454e 8d3d ff9f aa3d f530 86bd fcda 61bd
00000240: 655a 70bc 67cf aabd f978 c5bb a568 d4bd
00000250: 8109 86bd 4aa1 c03b b2de 14bd c81e f83d
00000260: 4298 28bd 78eb 8b3d 41e0 d3bd db5b 843d
00000270: b621 a7bd 21ff 69bd b52c e43d 89d8 693c
00000280: 649d f2bd c5a7 f5bc f053 22bc 0040 7f3c
00000290: e0e6 08be 45ff 623c 5f2e 7dbd 3d67 b03d
000002a0: 72f9 d63c db35 2b3d ed3c d73c 0423 e9bc
000002b0: 785f ec3c ca92 5a3e eef6 933c 0380 ebbc
000002c0: 7eae 8abd f8f1 ca3c ec8d e33d a174 85bc
000002d0: 3987 1dbd 1412 6cbd 6e1b c43b 5366 d13d
000002e0: 2969 dd3d 5925 1c3e 1605 a6bc e997 583c
000002f0: cfda 96bc 426b f2bd b60f 933d f449 133d
00000300: f9ce b13d eac7 8f3d f02a 803d 9ef7 8f3d
00000310: ba65 d7bd 2c79 6b3d f0a5 7e3d d09c c6bd
00000320: e840 a3bd 49a2 133c 7e20 46bc 6673 373d
00000330: d40d 8b3c f53e 153d 83c8 a13d 40a0 913c
00000340: 5cf9 e9bc 4f68 87bd 946e 433e f8df 8bbd
00000350: 6ae7 923c 89e9 47bd 20e0 0abd 4986 8bbd
00000360: c25e ebbd f7d4 b7bd 91f6 8abc a5d5 743c
00000370: a718 d3bc 3ebc 903d 17ef e3bd c9eb 843d
00000380: f53e 7c3d 1fc6 1cbd 0ec9 643c 8a45 873d
00000390: 0171 bb3d 3299 763d 4292 543d cc79 9c3d
000003a0: 5721 c83d 6a9c e23d 88fe 673b 2a3c b33d
000003b0: d1ab c0bd fd93 49bd 1d4d 5c3d be90 2bbd
000003c0: e941 7a3d 73c4 dc3d 4096 39bc 0abe 6a3d
000003d0: da40 e93d 88bb 61bd 740b 283d 52f5 633c
000003e0: 7284 6e3d c50e 903d ea7d bc3c 8942 963d
000003f0: eaa9 433d 814c 353e 979d aebb 075a 183c

layers.4.bias f4 [128]
0.06866406 0.05562413 0.04358589 -0.030942598 -0.05026621 0.08613446 0.080547445 0.06874274
-0.017989041 7.228205e-05 -0.026241114 0.009604275 0.036437284 -0.023489524 -0.043753665 -0.0512055
-0.04744558 0.0029304822 -0.023086507 -0.023847375 0.0046349606 -0.06291322 0.10333724 0.054005
-0.07959991 0.023210589 0.06423166 0.030276576 -0.0021371357 -0.085858 -0.020949662 0.078740865
0.04747216 0.058906585 0.04921286 0.109032355 0.021261701 -0.047208235 -0.0044090874 0.03151629
-0.057088934 0.058967754 0.042135436 -0.007163587 0.04464026 0.044422537 0.10803762 0.009463967
0.05047131 0.09343855 0.053891413 -0.15414141 -0.12468065 0.054917272 -0.03529119 0.030862574
-0.07410097 0.06780718 0.07384711 -0.025856128 -0.08161889 -0.057622198 0.043670114 -0.059685707
0.13352051 0.0505794 -0.10479924 0.07736218 -0.06232578 0.06770125 -0.03703642 0.062246427
-0.09179695 -0.057589054 0.037844684 -0.06895092 0.0138668185 -0.053328365 -0.0119608985 0.11782821
-0.03217729 -0.035068233 0.015360823 -0.042403918 0.032161746 -0.08345879 0.007696434 0.05919814
0.059600968 0.013965336 0.13088311 0.08050615 -0.06543157 -0.045389365 -0.039458703 -0.070580296
-0.042304188 0.037649933 0.0063533606 0.01329443 -0.014303874 0.024063284 -0.055553954 0.09473735
-0.046628974 0.00079624495 -0.029643435 0.04084659 0.060538195 0.025031026 0.074082315 -0.04501731
0.08554375 0.015765449 0.07405981 0.033576027 0.017482186 0.054492075 0.08802128 -0.006969065
0.043322 -0.04009636 -0.049762733 -0.018479604 0.044241663 0.10100068 -0.0750987 0.02705459
00000000: be9f 8c3d 21d6 633d 1e87 323d 557b fdbc
00000010: f1e3 4dbd 4467 b03d 0ff6 a43d fec8 8c3d
00000020: c15d 93bc 2196 9738 9bf7 d6bc 405b 1d3c
00000030: 433f 153d 1a6d c0bc 0b37 33bd dcbc 51bd
00000040: 4c56 42bd 550d 403b ea1f bdbc 925b c3bc
00000050: dee0 973b a5d8 80bd 7aa2 d33d 5934 5d3d
00000060: 4705 a3bd 2224 be3c e38b 833d 9506 f83c
00000070: 300f 0cbb 52d6 afbd a09e abbc e442 a13d
00000080: 2b72 423d 0848 713d 6d93 493d 5b4c df3d
00000090: 052d ae3c 6c5d 41bd 1b7a 90bb 3a17 013d
000000a0: 16d6 69bd 2c88 713d 3596 2c3d 86bc eabb
000000b0: b5d8 363d 68f4 353d d442 dd3d c10e 1b3c
000000c0: 01bb 4e3d b65c bf3d 3ebd 5c3d 3fd7 1dbe
000000d0: 9258 ffbd eff0 603d 7f8d 10bd 82d3 fc3c
000000e0: 40c2 97bd 7ede 8a3d 273d 973d 3bd0 d3bc
000000f0: ce27 a7bd 4105 6cbd 6fdf 323d 0079 74bd
00000100: 9ab9 083e 582c 4f3d fca0 d6bd 1070 9e3d
00000110: 5149 7fbd f4a6 8a3d 80b3 17bd 1cf6 7e3d
00000120: 0a00 bcbd 80e2 6bbd 0703 1b3d 2436 8dbd
00000130: a731 633c d86e 5abd a5f7 43bc eb4f f13d
00000140: 56cc 03bd b5a3 0fbd f6ab 7b3c bbaf 2dbd
00000150: 09bc 033d 71ec aabd 5e32 fc3b c079 723d
00000160: 2520 743d ddce 643c 3906 063e 69e0 a43d
00000170: fd00 86bd 33ea 39bd 739f 21bd 678c 90bd
00000180: 2847 2dbd d136 1a3d da2f d03b e2d0 593c
00000190: cc5a 6abc 5d20 c53c 8b8c 63bd a805 c23d
000001a0: 06fe 3ebd 18bb 503a cad6 f2bc c14e 273d
000001b0: e6f6 773d de0d cd3c 78b8 973d 1264 38bd
000001c0: 9031 af3d 8b26 813c abac 973d 0487 093d
000001d0: cd36 8f3c 1533 5f3d 8044 b43d c15c e4bb
000001e0: 6972 313d 153c 24bd 02d4 4bbd 8a62 97bc
000001f0: bf36 353d 72d9 ce3d 59cd 99bd 96a1 dd3c

layers.6.weight f4 [64, 128]
0.008122715 0.07950637 -0.070021816 -0.067775935 -0.034156527 0.08632746 -0.053827446 0.042232618
-0.06513867 0.054924246 -0.018376421 -0.0353033 -0.052759673 0.02925204 -0.055135064 -0.052266672
-0.098487966 0.002922748 0.01823275 -0.069564015 -0.02083906 0.0011396739 -0.00913103 0.08304274
0.06217728 -0.029393304 0.06801563 0.036454547 0.031481463 -0.006886868 -0.03299289 -0.024492873
-0.045467712 0.09442168 -0.062294822 0.04132962 -0.042971693 -0.033225335 -0.06367972 0.011340947
0.053094596 0.050919127 0.017257478 -0.03936116 0.07475033 -0.040179923 -0.02277734 -0.016368471
0.039455347 0.047401555 -0.03967028 -0.02453226 -0.029096626 0.11399007 -0.017492708 0.11379082
-0.055514053 -0.050712153 -0.031038122 -0.031219693 0.09378444 0.0031822093 -0.043950263 -0.018389963
0.07464371 0.10216948 -2.0182324e-05 -0.093457945 0.075128004 0.0038938394 0.08490163 -0.07347241
-0.0050218673 0.016497066 0.040948763 0.066405095 -0.07417086 0.06377954 -0.054573305 0.04234687
0.06080399 -0.042724326 -0.049026046 -0.028440801 0.002938545 0.07328112 0.045230266 0.03503508
0.033120368 0.0982926 -0.0021498462 -0.031631317 -0.12244143 0.080006726 0.05024344 -0.1052727
0.03792391 0.041180547 0.056116007 0.068566136 0.07884733 0.08423629 -0.029073961 0.043037836
-0.024464237 0.0705787 0.08170367 -0.044994127 -0.03550252 -0.04769495 0.10394406 -0.05111759
0.020510836 0.052401327 0.033568803 0.11093238 -0.005595488 -0.0057724714 -0.051032245 -0.019363007
0.10904041 0.044339675 -0.004122916 0.10209446 0.04757938 -0.05079133 -0.08951912 0.019013075
-0.008249327 0.013813829 0.0066787414 0.078161046 0.00868331 0.016489623 -0.029759925 0.053478856
0.10038998 -0.011005368 -0.08728954 -0.003032794 -0.021656109 0.08792079 0.039834928 -0.025517689
0.009627389 0.113672495 -0.05140067 0.0147230625 -0.105751894 -0.07622132 0.11212741 -0.035520498
0.058458082 -0.049119238 -0.087493956 0.08227561 0.07763698 -0.054078925 -0.00202815 0.08057653
0.008046166 0.07151215 0.07582468 0.100195795 0.05561615 -0.02147096 0.005929795 -0.082855865
-0.034665838 0.12985113 0.09566747 -0.037166785 0.07407304 -0.036910195 -0.07239158 0.014364627
0.03672652 -0.05235728 -0.059503622 0.0869018 -0.06998342 -0.04181447 0.03300631 0.10008318
-0.056632992 0.07349694 0.06279357 0.13590704 0.11180212 0.12459347 0.04486583 0.053766333
0.09566791 -0.022892375 -0.044113602 -0.061881226 0.039612897 -0.13733934 -0.015427971 -0.08202313
-0.030375963 0.035762966 0.08185329 0.010777423 -0.011167779 0.0095693115 0.0076498115 0.07957193
0.07928131 -0.0670027 -0.007265405 -0.008085615 -0.057406247 0.013706333 -0.022420716 0.06586289
-0.05253507 -0.0021574008 -0.09101236 0.101519465 0.106482275 0.028307553 -0.06773007 0.05647516
-0.03729663 0.083267525 0.072506614 -0.0940417 0.01777026 0.109522544 -0.10142098 0.14174862
0.11727688 0.021368427 -0.027018575 0.12517874 0.11420649 -0.067803726 0.008750413 0.09203903
0.046058547 0.05652828 0.0034479846 0.03278714 -0.035638507 0.013945427 0.07475152 -0.041845456
-0.024661655 0.005860857 -0.073127784 0.05573267 0.069336616 0.036048785 0.11036131 -0.1119906
00000000: 2315 053c 3cd4 a23d 9967 8fbd 1cce 8abd
00000010: b7e7 0bbd 74cc b03d 2b7a 5cbd 1cfc 2c3d
00000020: 6c67 85bd 3ff8 603d 268a 96bc 319a 10bd
00000030: 871a 58bd f9a1 ef3c 4ed5 61bd 9415 56bd
00000040: 0fb4 c9bd 938b 3f3b d95c 953c 9477 8ebd
00000050: adb6 aabc 1c61 953a 519a 15bc 5012 aa3d
00000060: 9bad 7e3d 3aca f0bc c74b 8b3d 5d51 153d
00000070: b5f2 003d 3cab e1bb 8d23 07bd 47a5 c8bc
00000080: 5a3c 3abd 2760 c13d db28 7fbd 3f49 293d
00000090: 1603 30bd 4a17 08bd 836a 82bd 61cf 393c
000000a0: b879 593d 9390 503d 8e5f 8d3c 2b39 21bd
000000b0: b316 993d b493 24bd 8b97 babc 2c17 86bc
000000c0: ee9b 213d 2228 423d 4e7d 22bd e1f7 c8bc
000000d0: 0c5c eebc a073 e93d de4c 8fbc 290b e93d
000000e0: b462 63bd 8cb7 4fbd a943 febc 71c0 ffbc
000000f0: 0e12 c03d 9d8c 503b 3105 34bd 8ca6 96bc
00000100: cdde 983d 3b3e d13d 364d a9b7 e166 bfbd
00000110: b6dc 993d c92f 7f3b e8e0 ad3d b478 96bd
00000120: 7a8e a4bb db24 873c e4b9 273d 65ff 873d
00000130: e4e6 97bd d99e 823d 4288 5fbd e973 2d3d
00000140: 9b0d 793d b4ff 2ebd 89cf 48bd affc e8bc
00000150: 9b94 403b 6914 963d 5f43 393d f280 0f3d
00000160: 39a9 073d a14d c93d 6fe4 0cbb d78f 01bd
00000170: 93c2 fabd 91da a33d 11cc 4d3d 3799 d7bd
00000180: 1a56 1b3d efac 283d e6d9 653d 676c 8c3d
00000190: b57a a13d 1384 ac3d 842c eebc 7148 303d
000001a0: 3969 c8bc 918b 903d 4154 a73d c34b 38bd
000001b0: 176b 11bd c85b 43bd a0e0 d43d ae60 51bd
000001c0: 5706 a83c c6a2 563d 717f 093d 8430 e33d
000001d0: 5b5a b7bb 0027 bdbb 3007 51bd 2b9f 9ebc
000001e0: 9450 df3d 859d 353d 8719 87bb e616 d13d
000001f0: 99e2 423d 920a 50bd cd55 b7bd 4fc1 9b3c
00000200: 2f28 07bc 6653 623c 58d9 da3b e612 a03d
00000210: 7144 0e3c 3f15 873c 16cb f3bc a50c 5b3d
00000220: 4399 cd3d dc4f 34bc dcc4 b2bd d7c1 46bb
00000230: 2768 b1bc d10f b43d f329 233d 790a d1bc
00000240: 32bc 1d3c 20cd e83d 8289 52bd 0039 713c
00000250: 7394 d8bd ec19 9cbd 0ea3 e53d f17d 11bd
00000260: be71 6f3d 4131 49bd 0830 b3bd 1d80 a83d
00000270: 2300 9f3d dd81 5dbd b6ea 04bb 4f05 a53d
00000280: 11d4 033c f674 923d f849 9b3d 7433 cd3d
00000290: c3cd 633d dee3 afbc ba4e c23b 56b0 a9bd
000002a0: c4fd 0dbd b2f7 043e 4eed c33d 333c 18bd
000002b0: 9bb3 973d 252f 17bd 0942 94bd 9d59 6b3c
000002c0: 8c6e 163d 9674 56bd 12ba 73bd 92f9 b13d
000002d0: 7853 8fbd a645 2bbd a031 073d 69f8 cc3d
000002e0: fff7 67bd 9085 963d ea99 803d 372b 0b3e
000002f0: 83f8 e43d dc2a ff3d 3cc5 373d 163a 5c3d
00000300: 8aed c33d ca88 bbbc 77b0 34bd 2b77 7dbd
00000310: 2241 223d afa2 0cbe 9ac5 7cbc befb a7bd
00000320: 03d7 f8bc 307c 123d b3a2 a73d ca93 303c
00000330: 0ff9 36bc 9ac8 1c3c 45ab fa3b 9cf6 a23d
00000340: 3d5e a23d b638 89bd a212 eebb 8779 04bc
00000350: d022 6bbd 8790 603c a6ab b7bc 1fe3 863d
00000360: 032f 57bd 2e63 0dbb b064 babd 70e9 cf3d
00000370: 6113 da3d 3ee5 e73c 10b6 8abd 7f52 673d
00000380: 5ac4 18bd 2a88 aa3d 597e 943d ef98 c0bd
00000390: f092 913c 5b4d e03d ceb5 cfbd 8d26 113e
000003a0: dc2e f03d d70c af3c 0f56 ddbc db2e 003e
000003b0: 18e5 e93d aedc 8abd e45d 0f3c f57e bc3d
000003c0: e3a7 3c3d 338a 673d 95f7 613b cf4b 063d
000003d0: aff9 11bd 5c7b 643c 5317 993d 2466 2bbd
000003e0: 3d07 cabc 6f0c c03b 05c4 95bd f147 643d
000003f0: 5b00 8e3d e4a7 133d 1c05 e23d 545b e5bd

layers.6.bias f4 [64]
0.08607039 0.07399742 0.0017743354 0.036542386 0.072954185 -0.054373097 -0.11245383 0.044340838
-0.030265473 0.0046279347 0.018847587 0.108231515 -0.053353727 0.021057403 -0.01818612 -0.048827395
0.07711642 0.012170946 0.0025455481 0.03018723 -0.02894344 0.0458402 0.09067094 0.02227603
0.024592767 0.046216626 0.03836176 -0.013653355 -0.05470651 0.066411816 -0.025100384 0.0012451009
0.022881707 -0.01162374 -0.026147116 -0.079225205 0.08425102 -0.07412265 0.049730252 0.022353157
0.064052776 0.0027823674 -0.013440229 -0.041251305 -0.07950551 -0.03049686 -0.0796224 0.122723326
0.057089694 0.02952071 -0.024376065 0.030730763 -0.027959548 0.03429644 -0.016789922 0.12021463
0.04018054 0.029608626 -0.04835989 0.010194203 0.10987577 -0.027066706 0.028587773 0.08451221
00000000: ac45 b03d f68b 973d d190 e83a 78ad 153d
00000010: 0169 953d 53b6 5ebd 324e e6bd bd9e 353d
00000020: 4cef f7bc eea5 973b 4166 9a3c 7ca8 dd3d
00000030: 7089 5abd 9380 ac3c 0ffb 94bc 3cff 47bd
00000040: 37ef 9d3d a668 473c 36d3 263b 364b f73c
00000050: cb1a edbc efc2 3b3d b0b1 b93d 397c b63c
00000060: c576 c93c a54d 3d3d 3921 1d3d 52b2 5fbc
00000070: ef13 60bd eb02 883d 529f cdbc a732 a33a
00000080: 6b72 bb3c 8071 3ebc 7a32 d6bc d340 a2bd
00000090: cc8b ac3d 9ecd 97bd f3b1 4b3d f81d b73c
000000a0: 1a2e 833d 6158 363b 6834 5cbc 21f7 28bd
000000b0: c9d3 a2bd 8dd4 f9bc 1211 a3bd 5e56 fb3d
000000c0: e2d6 693d 6bd5 f13c 50b0 c7bc 15bf fb3c
000000d0: 6c0b e5bc 6d7a 0c3d 058b 89bc 1733 f63d
000000e0: 5a94 243d ca8d f23c 0515 46bd 9605 273c
000000f0: 8c06 e13d ffba ddbc e830 ea3c bd14 ad3d

layers.8.weight f4 [32, 64]
-0.04863528 0.028724698 -0.037551593 -0.023853647 0.15595303 0.067480244 0.03491605 0.07225345
0.112776846 0.14462186 -0.088641986 -0.02457695 -0.00235416 0.0032816862 0.07388598 0.08034023
-0.11564015 -0.0969314 0.08999693 -0.117381 0.019615687 -0.033486955 0.014121278 0.07776467
0.0476847 0.15454628 0.035625596 0.059748545 0.14402013 -0.05155463 0.00816278 0.10400703
0.07274324 -0.029750915 -0.028277194 -0.052562002 -0.12708232 -0.04733132 0.08026537 0.07008256
-0.14322855 0.01506387 0.010498915 -0.041043192 -0.06485878 -0.08654939 0.07567739 0.08076086
0.08604634 0.041735467 -0.014019296 -0.047046605 0.050702196 0.07788589 0.033243366 -0.18852466
0.045784265 0.050033536 0.025061324 0.067118265 -0.041863244 0.008455761 0.12485988 -0.08764276
-0.06528001 -0.07932547 0.0675372 0.08277638 0.059907205 0.12226393 0.0078334445 0.0531988
-0.049579997 -0.1464383 -0.01698061 -0.10752584 0.093521416 -0.017718319 -0.080565535 0.10878178
0.048741993 -0.07543539 -0.0651919 0.05155909 0.123023674 0.067685015 -0.0073021976 0.11063059
0.09014017 0.05479563 -0.023271916 0.16767694 0.06376858 0.036223806 -0.06271234 0.10095611
0.04264642 0.06793692 -0.12575407 0.038770836 0.12341657 0.1273484 -0.100050434 0.09933082
-0.021183515 0.041942563 -0.13445795 0.021104835 0.030046297 -0.04874341 0.042003732 0.06759394
0.042354215 0.08910703 0.018986484 0.10167196 -0.0650724 -0.08441006 0.034702867 -0.046437323
-0.13837847 -0.10708112 -0.009173238 0.12327678 -0.07679853 -0.13212131 -0.052416977 -0.012727765
-0.048877694 0.08930779 0.08024712 -0.012615611 0.14098725 -0.022490151 -0.09966627 0.09511394
0.022364132 -0.14150925 0.09064863 -0.093550146 0.07672009 -0.11522182 0.06885749 -0.026508246
0.12878783 -0.012157559 -0.016950587 0.15377215 0.025076764 -0.07255428 -0.094374545 0.0014866091
0.051529754 -0.1104554 0.03868303 0.05513555 0.11419095 0.056189943 -0.020350598 -0.0003188516
-0.09979692 0.06434179 0.111781955 -0.05705865 0.12442774 0.052311856 0.04303504 0.0011575974
-0.0094471965 -0.026283119 0.06867472 -0.061005257 -0.11125199 0.0843046 -0.011425685 -0.077967435
-0.09281807 -0.011403558 -0.038345978 0.08990501 -0.108946785 -0.087899834 0.07718352 -0.010351217
0.107016765 -0.06853495 0.06499385 0.1354358 0.04841408 -0.018080242 0.030563515 0.03836144
-0.120560914 0.012001631 0.041136257 0.10642587 0.1684263 0.12082323 -0.13299355 0.0031460826
0.08148906 0.078773625 0.00022499281 -0.07893194 0.048613906 -0.052277792 0.0020879616 -0.11494614
0.002671002 -0.0417818 0.07775751 -0.04052327 0.115691744 -0.024427943 -0.02481493 0.034710232
0.06105231 0.016465668 -0.064845555 0.0026282724 -0.034761474 0.08179937 -0.12945463 0.09604683
0.053042825 0.07390644 -0.015040909 -0.015132963 0.12574668 0.08331476 0.042421263 -0.13825127
0.105497405 0.104169086 -0.055981528 -0.13263586 0.036068868 0.11976001 0.09107787 0.014552556
-0.09724973 -0.07008101 0.011933663 -0.055745553 0.16944353 0.09176849 -0.030447397 -0.038236007
-0.11277292 0.019285604 0.05088905 -0.03251501 0.03299053 -0.010352396 0.043224208 -0.023507139
00000000: ca35 47bd 0f50 eb3c b3cf 19bd b968 c3bc
00000010: 27b2 1f3e 1533 8a3d 2204 0f3d 9ef9 933d
00000020: 8cf7 e63d c117 143e ee89 b5bd 9a55 c9bc
00000030: 4048 1abb 8f11 573b 8851 973d 6b89 a43d
00000040: bed4 ecbd f883 c6bd 4f50 b83d 7365 f0bd
00000050: 14b1 a03c 9e29 09bd ef5c 673c 1543 9f3d
00000060: 0851 433d 6141 1e3e 25ec 113d e4ba 743d
00000070: 037a 133e f32a 53bd 2ebd 053c a301 d53d
00000080: 68fa 943d 31b8 f3bc 93a5 e7bc 414b 57bd
00000090: de21 02be 7cde 41bd 2c62 a43d 7287 8f3d
000000a0: 81aa 12be 73ce 763c a403 2c3c e81c 28bd
000000b0: aed4 84bd ce40 b1bd bffc 9a3d f365 a53d
000000c0: 1039 b03d cff2 2a3d 30b1 65bc f1b3 40bd
000000d0: 1bad 4f3d a382 9f3d 322a 083d 9c0c 41be
000000e0: 4888 3b3d f7ef 4c3d 684d cd3c 4d75 893d
000000f0: cb78 2bbd 088a 0a3c 89b6 ff3d 0c7e b3bd
00000100: 87b1 85bd 6475 a2bd f250 8a3d aa86 a93d
00000110: 4261 753d 8365 fa3d d957 003c fce6 593d
00000120: 6514 4bbd ecf3 15be ec1a 8bbc 8236 dcbd
00000130: 2888 bf3d 0226 91bc 8bff a4bd fbc8 de3d
00000140: afa5 473d df7d 9abd 5583 85bd a02f 533d
00000150: d6f3 fb3d 719e 8a3d 4647 efbb 4a92 e23d
00000160: 699b b83d 6271 603d bfa4 bebc 81b3 2b3e
00000170: 1a99 823d 6a5f 143d 546f 80bd 14c2 ce3d
00000180: 03ae 2e3d 8322 8b3d adc5 00be 2bce 1e3d
00000190: d4c1 fc3d 9e67 023e 3ee7 ccbd f56d cb3d
000001a0: 0d89 adbc f7cb 2b3d 58af 09be 0ce4 ac3c
000001b0: a723 f63c 2ba7 47bd 1b0c 2c3d b16e 8a3d
000001c0: 9d7b 2d3d bf7d b63d 8b89 9b3c 6339 d03d
000001d0: ae44 85bd 2edf acbd 9824 0e3d 1035 3ebd
000001e0: 16b3 0dbe 594d dbbd 594b 16bc 8978 fc3d
000001f0: 8c48 9dbd cf4a 07be 2fb3 56bd 1e88 50bc
00000200: fa33 48bd 01e7 b63d 9a58 a43d b5b1 4ebc
00000210: f65e 103e 443d b8bc d41d ccbd 19cb c23d
00000220: fc34 b73c cde7 10be fda5 b93d 3897 bfbd
00000230: 6c1f 9d3d 6bf9 ebbd 2805 8d3d d227 d9bc
00000240: f5e0 033e 8030 47bc f5db 8abc 7276 1d3e
00000250: c96d cd3c 5797 94bd 7147 c1bd 53da c23a
00000260: dd10 533d 7136 e2bd 1972 1e3d d1d5 613d
00000270: f2dc e93d 6d27 663d 4cb6 a6bc 8a2b a7b9
00000280: 5462 ccbd a1c5 833d f0ed e43d 55b6 69bd
00000290: f9d3 fe3d f544 563d 8345 303d 86ba 973a
000002a0: 6ac8 1abc b24f d7bc 55a5 8c3d a6e0 79bd
000002b0: 15d8 e3bd e4a7 ac3d cc32 3bbc 64ad 9fbd
000002c0: 6617 bebd fdd5 3abc ac10 1dbd 1e20 b83d
000002d0: 7e1f dfbd d404 b4bd 6512 9e3d 2798 29bc
000002e0: 9b2b db3d 0d5c 8cbd 7f1b 853d afaf 0a3e
000002f0: d84d 463d 041d 94bc 5660 fa3c e320 1d3d
00000300: a4e8 f6bd 7da2 443c 7e7e 283d cef5 d93d
00000310: f277 2c3e 2b72 f73d 762f 08be 822e 4e3b
00000320: bce3 a63d 1154 a13d 0cec 6b39 12a7 a1bd
00000330: 601f 473d 3d21 56bd 2fd6 083b e268 ebbd
00000340: fa0b 2f3b 6523 2bbd 543f 9f3d bafb 25bd
00000350: cbef ec3d 1c1d c8bc ae48 cbbc 512c 0e3d
00000360: fd11 7a3d 02e3 863c bfcd 84bd 183f 2c3b
00000370: 0c62 0ebd 6e86 a73d c18f 04be 33b4 c43d
00000380: 6f43 593d 425c 973d 256e 76bc 3ff0 77bc
00000390: bdc3 003e eea0 aa3d ebc1 2d3d be91 0dbe
000003a0: 060f d83d 9a56 d53d e34c 65bd b2d1 07be
000003b0: f3bc 133d bc44 f53d 0987 ba3d d86d 6e3c
000003c0: de2a c7bd a286 8fbd 6985 433c 7355 64bd
000003d0: 9b82 2d3e 1ef1 bb3d d26c f9bc 5c9d 1cbd
000003e0: 7df5 e6bd d8fc 9d3c 0971 503d 762e 05bd
000003f0: 1421 073d 199d 29bc de0b 313d 0b92 c0bc

layers.8.bias f4 [32]
0.07221719 -0.041415703 0.11389752 -0.09707895 -0.07796424 -0.045245834 -0.072049886 -0.013326661
0.10424802 0.077565715 0.094469294 0.037598267 -0.08150184 0.03180541 0.0033541617 0.08990797
-0.17657684 -0.08826569 -0.002358742 -0.0825905 -0.040243797 0.003866445 0.0018974692 -0.053467646
0.111697815 -0.01894709 0.11074537 0.0032672791 0.0021660817 -0.0310033 -0.0777705 -0.06557311
00000000: 9be6 933d 83a3 29bd 1a43 e93d 54d1 c6bd
00000010: b7ab 9fbd b253 39bd e48e 93bd 1158 5abc
00000020: fc7f d53d c6da 9e3d 1e79 c13d a400 1a3d
00000030: 70ea a6bd 6446 023d 7fd1 5b3b ab21 b83d
00000040: 8fd0 34be a4c4 b4bd 2095 1abb 3525 a9bd
00000050: aed6 24bd 2f64 7d3b 80b4 f83a e400 5bbd
00000060: d3c1 e43d ed36 9bbc 78ce e23d d91f 563b
00000070: d2f4 0d3b a2fa fdbc 2446 9fbd 324b 86bd

layers.10.weight f4 [13, 32]
0.06431352 0.17472862 0.111975245 0.19066964 -0.0462153 -0.097152844 0.15772788 0.21130973
0.06889188 0.021322621 -0.110074036 -0.08046441 -0.12609483 0.047573462 0.043805547 -0.18931559
0.119162634 0.07037787 0.007857069 0.07509735 0.20586972 0.07787701 -0.10054881 -0.040921047
0.018185588 0.07351829 0.14441782 -0.039619386 0.10322614 0.010959428 -0.0964466 -0.22537093
-0.010725574 -0.09329868 -0.06089621 -0.09023358 -0.1774367 0.1538335 -0.06511823 -0.20602006
0.049905684 -0.10235054 0.13755374 -0.04268625 -0.1074966 0.13504247 -0.14409128 -0.10693776
0.15150999 0.098331206 -0.019585224 -0.027442973 0.04128572 -0.14337867 0.13923241 -0.13519579
-0.040714502 0.1461156 0.21082194 -0.07841257 0.07328507 0.0011131819 0.09988426 -0.048791863
0.043859363 -0.023319367 -0.024797466 0.21818842 -0.016695168 0.045355152 0.0075135827 -0.017434867
-0.06268652 -0.03243505 -0.055936784 -0.1813919 -0.062704526 0.12791957 -0.012512524 -0.022041164
-0.24334048 -0.15812653 -0.078025304 -0.1354376 -0.0008153377 -0.092632465 0.1306598 -0.118089646
-0.022141883 0.07196775 0.019038424 -0.008886516 0.09570762 0.05859777 0.22601813 0.00804588
0.18632431 0.16494146 -0.20105834 0.0875746 -0.18331352 0.16584507 -0.0038520694 0.017529879
-0.18321824 0.16319811 0.109670475 -0.17601945 -0.15454802 -0.15358296 -0.1746446 -0.19806348
0.106965 0.15162446 0.14496484 0.09110225 -0.059773464 -0.047436357 -0.02971235 0.06608781
0.019321186 0.14051527 -0.16299452 -0.057925142 0.0078960005 -0.0032426738 0.121326506 -0.032289952
-0.16283521 0.018614646 0.044148207 -0.035224963 -0.16646145 0.021823658 -0.046140954 0.15397707
0.12335056 -0.17863776 -0.1783193 0.16621736 -0.046464033 0.039432712 -0.08572764 0.17691796
-0.2044728 0.12872641 0.001903324 0.13808155 0.032461718 0.19919229 0.15459977 -0.018353134
-0.17222089 0.1597881 -0.093026295 0.098631315 0.040088058 0.11175542 -0.14506881 -0.08966145
-0.09851437 -0.031589787 -0.14436293 -0.15008977 -0.10512229 0.08189484 -0.10449386 0.12949213
-0.1078795 0.16754334 0.072438344 0.2328129 -0.12689063 -0.13192113 0.02234749 -0.07437806
0.10253721 -0.14910828 -0.18076092 0.14805247 0.17531356 -0.21551037 0.12049557 -0.13135996
0.132324 0.07696359 0.13143553 -0.16648258 -0.11483265 -0.06816332 0.21322349 -0.22576128
0.068266295 -0.120442174 0.118138544 -0.13767062 -0.20425698 -0.061384264 -0.16554755 -0.0017130324
0.0973327 0.19706945 -0.08153218 -0.14437482 -0.19209634 -0.082646415 0.014479032 0.16350564
-0.09616369 -0.13312024 0.10606704 0.13992782 -0.108656146 -0.041435234 0.008893251 -0.1543089
0.042826995 0.10623922 0.1511812 -0.085422434 -0.1178084 -0.1335634 -0.035567928 -0.040675055
0.036551293 -0.24874839 0.011383022 0.08453133 0.09781995 -0.06797398 -0.12368974 0.042391513
-0.18803199 -0.11029386 -0.14135566 0.084887 0.045864075 0.22326197 -0.17405388 0.08906803
-0.018670728 0.017778272 0.20260215 -0.04874449 0.18215033 -0.0019844393 -0.17520656 0.04976651
0.11001402 -0.13838992 -0.12427346 -0.13195373 -0.074004106 -0.1364692 0.036209963 0.046572912
00000000: cfb6 833d 0fec 323e 4753 e53d e73e 433e
00000010: 414c 3dbd 12f8 c6bd 6b83 213e 9461 583e
00000020: 3017 8d3d c7ac ae3c 7f6e e1bd 86ca a4bd
00000030: 011f 01be 64dc 423d 726d 333d f2db 41be
00000040: 8a0b f43d 4622 903d f0ba 003c a4cc 993d
00000050: 83cf 523e fb7d 9f3d 89ec cdbd d49c 27bd
00000060: f1f9 943c c290 963d 44e2 133e f047 22bd
00000070: 3a68 d33d 2c8f 333c cc85 c5bd a3c7 66be
00000080: 51ba 2fbc 6113 bfbd 4e6e 79bd 62cc b8bd
00000090: f7b1 35be 8786 1d3e b55c 85bd ecf6 52be
000000a0: e769 4c3d 299d d1bd e3da 0c3e c7d7 2ebd
000000b0: 2d27 dcbd 9348 0a3e aa8c 13be 2f02 dbbd
000000c0: 6f25 1b3e df61 c93d 3171 a0bc 16d0 e0bc
000000d0: 371b 293d dcd1 12be f192 0e3e c470 0abe
000000e0: 40c4 26bd 549f 153e b5e1 573e c596 a0bd
000000f0: 7c16 963d 30e8 913a 1e90 cc3d fad9 47bd
00000100: e0a5 333d 4208 bfbc 0e24 cbbc c96c 5f3e
00000110: 4ec4 88bc 53c6 393d 8034 f63b 91d3 8ebc
00000120: ca61 80bd 9dda 04bd f81d 65bd ccbe 39be
00000130: 3b6b 80bd 59fd 023e 5401 4dbc ac8f b4bc
00000140: 3f2e 79be eceb 21be bbcb 9fbd 27b0 0abe
00000150: 63bc 55ba 17b6 bdbd afcb 053e fcd8 f1bd
00000160: e562 b5bc d463 933d 78f6 9b3c c098 11bc
00000170: 5b02 c43d 3704 703d 4c71 673e ded2 033c
00000180: cdcb 3e3e 6ae6 283e 3de2 4dbe 505a b33d
00000190: 8ab6 3bbe 4ad3 293e 0073 7cbb d29a 8f3c
000001a0: 909d 3bbe 681d 273e ea9a e03d 713e 34be
000001b0: d641 1ebe da44 1dbe 09d6 32be 27d1 4abe
000001c0: 7710 db3d 7143 1b3e aa71 143e d193 ba3d
000001d0: 05d5 74bd a04c 42bd 5067 f3bc 0c59 873d
000001e0: 7747 9e3c 3ce3 0f3e 09e8 26be ea42 6dbd
000001f0: 3a5e 013c 0a83 54bb 087a f83d 7842 04bd
00000200: 46be 26be be7d 983c c0d4 343d 0d48 10bd
00000210: df74 2abe 87c7 b23c 4cfe 3cbd 2aac 1d3e
00000220: 389f fc3d d1ec 36be 5699 36be e234 2a3e
00000230: 1251 3ebd 3284 213d f991 afbd fb29 353e
00000240: 5161 51be dbd0 033e f578 f93a 4065 0d3e
00000250: 94f6 043d 10f9 4b3e 674f 1e3e 5059 96bc
00000260: ac5a 30be 7e9f 233e 9284 bebd 37ff c93d
00000270: 6033 243d 07e0 e43d eb8c 14be 6ca0 b7bd
00000280: e7c1 c9bd 4b64 01bd e0d3 13be 22b1 19be
00000290: 5b4a d7bd 7bb8 a73d e000 d6bd 9699 043e
000002a0: edef dcbd 7b90 2b3e 8e5a 943d 8166 6e3e
000002b0: 9eef 01be 5516 07be 1512 b73c 8653 98bd
000002c0: 07ff d13d d7af 18be 6419 39be 119b 173e
000002d0: 6685 333e c0ae 5cbe 62c6 f63d 3a83 06be
000002e0: f17f 073e 169f 9d3d 0997 063e 697a 2abe
000002f0: 612d ebbd 3699 8bbd 4257 5a3e f72d 67be
00000300: 33cf 8b3d 63aa f6bd 9ff2 f13d 87f9 0cbe
00000310: be28 51be 116e 7bbd 4c85 29be d487 e0ba
00000320: 5e56 c73d 93cc 493e 58fa a6bd fed6 13be
00000330: e7b4 44be 8642 a9bd 7639 6d3c 066e 273e
00000340: 78f1 c4bd ac50 08be ad39 d93d 3d49 0f3e
00000350: 1d87 debd feb7 29bd 00b5 113c 2703 1ebe
00000360: 5c6b 2f3d f393 d93d 3fcf 1a3e f5f1 aebd
00000370: 8845 f1bd d8c4 08be adaf 11bd e39a 26bd
00000380: cfb6 153d e6b7 7ebe db7f 3a3c c31e ad3d
00000390: d355 c83d f135 8bbd 0c51 fdbd b9a2 2d3d
000003a0: 758b 40be bfe1 e1bd 8abf 10be 3cd9 ad3d
000003b0: f8db 3b3d c99e 643e 2e3b 32be 4d69 b63d
000003c0: 5bf3 98bc bda3 913c f076 4f3e 4da8 47bd
000003d0: 9e85 3a3e 5e0d 02bb 5969 33be f8d7 4b3d
000003e0: 084f e13d 16b6 0dbe 1583 febd e11e 07be
000003f0: 778f 97bd 95be 0bbe e650 143d 3dc3 3e3d

layers.10.bias f4 [13]
-0.17993699 0.15576121 0.22356421 -0.07430113 0.046267275 0.101513006 -0.0835517 -0.0152481245
-0.092087366 0.1486792 -0.054426502 -0.13569069 0.07098173
00000000: 6741 38be de7f 1f3e 04ee 643e 312b 98bd
00000010: c182 3d3d 0de6 cf3d 271d abbd 45d3 79bc
00000020: 4d98 bcbd 5c3f 183e 53ee 5ebd 80f2 0abe
00000030: df5e 913d
